gesture_classifier/gesture_classifier/submodules/model/keypoint_classifier/keypoint_classifier.tflite (tflite, 6632 bytes, 6 tensors)

sequential/dense/BiasAdd/ReadVariableOp f4 [20]
000000 e8 1a d7 3e 6c 73 20 bf 5d d7 18 bf 88 c3 05 3f
       0.42012715 -0.6267612 -0.5970362 0.5225148
000010 14 38 10 be 8f 8f 6c 3e f2 87 80 3e ae 69 16 be
       -0.14083892 0.23101638 0.25103718 -0.14688751
000020 18 d4 26 be fc fe 07 bf 28 ca 1b 3f c0 aa 86 3e
       -0.16291845 -0.5312345 0.6085534 0.26302147
000030 08 50 99 be d0 94 9b 3d b7 c7 5c 3e fb 35 2d bf
       -0.29943871 0.07596743 0.2156056 -0.6766049
000040 81 45 b4 bd 52 40 b0 3e 9d 3d 96 bd e0 3f 52 3e
       -0.08802319 0.34424073 -0.073359706 0.20532179

sequential/dense_2/BiasAdd/ReadVariableOp f4 [6]
000000 31 f8 88 be 64 68 65 bd 32 bb 46 bd 0e 25 b8 3e
       -0.26751855 -0.056007758 -0.048518367 0.3596577
000010 ad 84 b2 3e 31 b6 85 be
       0.3486685 -0.26115564

sequential/dense_1/BiasAdd/ReadVariableOp f4 [10]
000000 d0 6c ad 3e 8e 09 c4 be e8 b4 ab 3e a6 12 f2 3e
       0.3387208 -0.3828854 0.33536458 0.47279853
000010 88 3c 13 3f 5e 0b d6 3e f4 8e 0f 3f df 11 35 be
       0.5751424 0.41805547 0.56077504 -0.17682599
000020 98 e1 51 3e 6f ca 95 3e
       0.20496213 0.29256007

sequential/dense/MatMul f4 [20, 42]
000000 d2 3b 18 be 50 16 6f 3d b8 1e de bd 9a b8 74 3e
       -0.1486657 0.05837089 -0.10845703 0.23898545
000010 3f 6c 23 be d2 93 d3 3e 7d 4e 87 3d 4e b1 a6 3e
       -0.15959261 0.41323715 0.06606767 0.32557148
000020 0e 9d 83 3e 16 89 98 3e b3 c1 2c bd d4 d5 db 3d
       0.2570576 0.29792088 -0.042176913 0.10734144
000030 c6 3d 4f bd d7 ef 43 be 92 8a b3 bc a7 bc 02 bf
       -0.05059602 -0.1913446 -0.021916661 -0.5106911
000040 4d 98 96 3d 4e 0d 21 bf 15 f2 14 3e f6 0d 0d 3e
       0.07353268 -0.62910926 0.14545472 0.13774857
000050 65 42 26 bd 28 07 de bd 08 28 c4 bd f0 76 88 3d
       -0.040590663 -0.10841209 -0.09577948 0.066633105
000060 f1 ca c5 bd c5 4d 83 3e 19 db e8 3d 31 a7 e5 3d
       -0.096578486 0.2564527 0.113699146 0.1121353
000070 00 4d d9 bd 9c f7 21 3d df fa 22 be f8 d8 87 3e
       -0.1061039 0.03954278 -0.15916012 0.26532722
000080 ee 38 9f be 44 e1 df 3e 16 ee 91 3e f2 37 03 3d
       -0.3109812 0.43726552 0.28501958 0.032035775
000090 24 4b 6d be 52 60 ba 3d 68 96 a4 bc f2 6a fb 3d
       -0.23173195 0.09100403 -0.02009125 0.122762576
0000a0 92 ba 30 3e e7 39 b1 3e 34 32 2d be 60 1b d3 bd
       0.17258671 0.34614488 -0.16913682 -0.10307956
0000b0 03 cb 02 3f 22 7a 55 be 48 71 cb 3e ab 43 12 bf
       0.5109102 -0.20847371 0.39734864 -0.57134503
0000c0 5d 10 fc 3e 60 24 2c bf 17 a1 9b 3e 31 47 23 bf
       0.49231234 -0.67243004 0.3039634 -0.63780504
0000d0 ff bd 68 3e e3 97 d9 bd c6 a1 9d 3e 1e c6 b3 bd
       0.22728728 -0.10624673 0.30787486 -0.08778022
0000e0 0e a1 0d 3e 26 e7 b4 3e 7f d0 8f bd 9a f9 cd 3e
       0.13830969 0.35332602 -0.07022189 0.40229493
0000f0 f4 88 1c bd 57 95 3b be da 53 f0 3e ec d5 72 3c
       -0.038216546 -0.18318687 0.46938974 0.014821511
000100 0e 44 90 3d 75 2e 90 3e fb de e3 bd 6b 49 6e 3e
       0.070442304 0.28160444 -0.111265145 0.23270194
000110 02 12 05 bd 7d 55 4c be 46 5e b7 3e c5 65 ad bb
       -0.032487877 -0.19954486 0.35814112 -0.005291673
000120 68 53 99 3e 10 97 af bd 7c 3d 3f be f8 ae d6 be
       0.29946446 -0.08573735 -0.18675798 -0.41930366
000130 b9 ce 0a bf c5 2b 8a be 7e 40 b5 bd c2 10 1a be
       -0.54221684 -0.26986519 -0.088501915 -0.15045455
000140 e5 0c 44 be 15 ac 38 be db 6a 24 bf 15 c0 b5 be
       -0.19145544 -0.18034394 -0.6422555 -0.3549811
000150 50 11 9a bc 48 04 1f be 36 68 26 3e 60 78 45 3c
       -0.018807083 -0.15528977 0.16250691 0.012052625
000160 5f e4 b3 3e 28 87 70 bd bb b5 67 3e f7 55 ba be
       0.3513517 -0.058722645 0.22627918 -0.3639371
000170 12 64 6a 3e 8a 9e 75 be c1 c8 a1 3e 9d 7e fa be
       0.22889736 -0.23986259 0.31598476 -0.48924723
000180 8e 49 24 3d cc 19 00 be f0 75 d5 bd cc dd 2c 3e
       0.04010921 -0.1250984 -0.104228854 0.16881484
000190 c5 1d c2 bd 84 52 10 3e 32 2c 98 3e 27 17 f9 bd
       -0.09478334 0.14093977 0.29721218 -0.12162619
0001a0 aa 2c 0e 3f 5d 11 85 3c 3c 84 40 3e 4d 57 60 3e
       0.555369 0.016243631 0.18800443 0.21908303
0001b0 7d 0f 38 be 47 60 43 3e fc 90 3b 3c 85 a4 9e be
       -0.17974658 0.19079696 0.011448141 -0.30984893
0001c0 b8 a5 05 3e f3 5c a8 bd 21 ae 9c bd 6e 49 83 3e
       0.13051498 -0.08220854 -0.076504 0.2564196
0001d0 58 c6 f5 be 3d d5 9f 3e 08 df e9 be 7a 55 ea be
       -0.48002887 0.31217375 -0.45677972 -0.45768338
0001e0 b7 82 ad 3c ee c2 f0 bd 8d 25 d3 bd 11 01 a8 3d
       0.021180494 -0.1175593 -0.103098966 0.082033284
0001f0 f2 d6 a2 be a8 75 a4 3e cd 72 20 be 7a 1e 5c be
       -0.31804615 0.32121015 -0.15668793 -0.21496001
000200 64 88 2c be f8 6d 87 3e 5b 78 04 be 64 0f cb 3e
       -0.16848904 0.26451087 -0.12936537 0.3966018
000210 83 78 87 3c 60 83 0c 3f 69 93 f3 3e db 22 d9 3e
       0.016536957 0.5488796 0.47573403 0.42409405
000220 17 2f 26 be 77 3c 48 3e 67 2e 8e be f7 2a 2e 3d
       -0.16228901 0.19554316 -0.27769777 0.042521443
000230 23 a0 a8 bd ed 95 9c be dd 81 22 3e 87 7a 06 bf
       -0.08233669 -0.30583134 0.15869851 -0.5253071
000240 04 c1 74 be 30 bc 6a 3e b9 46 91 be 3b 88 34 3e
       -0.23901755 0.2292335 -0.2837427 0.17630093
000250 b1 77 76 be 0f f9 1a be 72 24 f5 bd c8 b6 28 be
       -0.24069096 -0.15134071 -0.11969842 -0.16475976
000260 2c d9 3d 3d 65 fc 92 3e 1e 76 65 be fc 22 0f 3e
       0.04634969 0.28708187 -0.2240834 0.13978189
000270 4c a0 48 be bc 92 5b be d8 c1 f5 3d bc dc d8 be
       -0.19592398 -0.21442693 0.119998634 -0.42355907
000280 8a e5 e5 3e ea dc 81 3e ee 22 77 bc 7e 74 8a 3d
       0.44901687 0.25363857 -0.0150840115 0.067605
000290 6e c8 05 3d 59 00 68 be 94 a1 98 3e 9e 2b a9 be
       0.032661848 -0.22656383 0.29810774 -0.3304109
0002a0 da a6 61 be 32 69 21 3e e2 dd 0a bf 65 39 17 3d
       -0.22036305 0.15762785 -0.54244816 0.03691997
0002b0 fa 2a cb bd 72 1b cc 3d 67 f5 08 bf 82 d3 38 be
       -0.099203065 0.09966172 -0.53499454 -0.18049434
0002c0 e6 f8 e5 be ee cf 4c 3e 91 90 79 3e e5 7b 20 bd
       -0.44916457 0.20001194 0.24371554 -0.039180655
0002d0 08 93 cd bd bb d1 82 bc 4e 57 1c bf 26 46 04 3e
       -0.100378096 -0.015969148 -0.61070716 0.12917385
0002e0 7a e7 d7 be 77 d6 f5 3d 0d 7c 4a 3c 92 82 38 be
       -0.4216879 0.120037965 0.012358678 -0.18018559
0002f0 c5 16 d2 bd 4b f9 be 3d 69 dc 82 be 0c ac bb bc
       -0.10258249 0.093248926 -0.25558785 -0.022909187
000300 8a 75 97 bd 65 f6 3e 3d c5 f0 91 3e 8e fe 37 be
       -0.07395466 0.0466217 0.28504005 -0.17968199
000310 fd 0b 95 bd 57 06 c8 bd 45 0f 10 bf c9 ba 99 3d
       -0.07277677 -0.09766834 -0.562733 0.075063296
000320 b4 97 db be 88 bd a2 3b 66 73 8a 3d 68 71 9a 3a
       -0.42889178 0.0049664415 0.06760292 0.0011783065
000330 35 0c f5 bd ed bb e1 3c ab 48 9a be 37 e1 4a bd
       -0.11965219 0.02755543 -0.30133566 -0.049531188
000340 b6 51 08 be 69 11 e7 bc b0 f8 e6 3d 10 4d e4 bc
       -0.1331242 -0.028206544 0.11277902 -0.027868778
000350 7a ce a6 3e 98 0a 71 3e 97 ee 45 3e e5 c5 85 bd
       0.32579404 0.23539197 0.19329296 -0.06531886
000360 54 08 2c 3e 32 ba ba 3d d1 97 69 3d 90 61 36 3e
       0.16800052 0.09117545 0.05702955 0.17810655
000370 6b 4a 30 be ee b0 5d 3e 7a 52 0a bd ef dd 02 3d
       -0.17215888 0.21649525 -0.033770062 0.031949934
000380 1b 05 b5 bd ed d7 65 be bc 94 9b 3d a1 4e 1b bd
       -0.088388644 -0.2244565 0.07596728 -0.037916783
000390 85 fe 50 3e ee 2a b3 3e d2 e7 18 be f9 7d 84 3e
       0.20409591 0.3499369 -0.14932182 0.2587736
0003a0 09 85 60 3e 5f 11 16 3c c5 9a 92 3e 47 f0 e0 3d
       0.21925749 0.009159415 0.28633705 0.10983329
0003b0 85 d6 29 3e c0 c1 c2 3e 96 81 10 be 1e 7b fb 3e
       0.16585739 0.38038445 -0.14111933 0.49117368
0003c0 06 da e0 3d 82 4a b7 3e fd 60 e7 3e 3e 48 62 3d
       0.10979085 0.35799032 0.45191184 0.055244677
0003d0 9b 96 ab 3d 52 47 30 3f 5f df ee 3c e6 fb d8 3e
       0.08378335 0.68858826 0.029159246 0.42379683
0003e0 6e 24 f9 3c 42 5f 41 3e ba 58 71 3e ef de 1d 3e
       0.030412879 0.18883994 0.23569003 0.15417074
0003f0 41 dc 2e be 20 89 f7 3d c9 75 4d 3e 8c 7c f9 3d
       -0.17076208 0.120867014 0.20064463 0.121819586

sequential/dense_1/MatMul f4 [10, 20]
000000 de 56 ae be a2 e8 84 bf 14 04 18 3f c2 11 0d be
       -0.3405065 -1.0383494 0.5938122 -0.13776305
000010 03 fe a3 bd 81 98 a0 be 0e 4c f0 3d b4 ad 2a be
       -0.08007433 -0.3136635 0.11733256 -0.16667825
000020 bc 31 78 3e 8c f8 10 3f a7 ba f6 3d 38 79 ba 3d
       0.24237722 0.5662925 0.1204732 0.09105152
000030 e8 bb 88 3e 9a 68 fd be c4 20 80 bd 15 d4 66 3f
       0.2670586 -0.49493867 -0.062562495 0.9016736
000040 8c 37 b2 3d 11 de e3 3d 6c 8b 35 be 1c d8 76 bd
       0.08702001 0.1112634 -0.17728966 -0.06026469
000050 2d 99 8b 3d 65 17 9a 3e 28 e3 0c 3f ca fe 3f be
       0.06816325 0.30095974 0.5503411 -0.18749538
000060 95 5a 41 3f 46 b7 74 3d 60 df 83 be 20 8a de 3e
       0.7552884 0.059745096 -0.2575636 0.43464756
000070 c7 65 40 3f c8 57 e2 3e 94 4d 9b be 0e 5c 08 bf
       0.751553 0.44207597 -0.30332625 -0.53265464
000080 32 25 be 3e dc ba c8 be 79 b5 a5 be d4 0a 59 3f
       0.37137753 -0.39205062 -0.32365015 0.8478215
000090 51 2b cb 3e dd 78 1c 3c 72 e3 2c 3f 77 9c 53 be
       0.39681485 0.0095503 0.67534554 -0.20665155
0000a0 02 d7 b8 3e e4 a1 0f 3d 3d d2 0f 3d 91 c9 57 3f
       0.36101538 0.0350665 0.03511261 0.8429194
0000b0 43 99 91 bd 6f af d1 bd e8 4a c2 be d3 83 c4 bc
       -0.071093105 -0.102385394 -0.37947774 -0.02398864
0000c0 43 b5 f0 be af db 43 3e 18 65 c8 bd ac ad b6 3e
       -0.47013292 0.19126771 -0.09784907 0.35679376
0000d0 c1 3a 77 3d 48 cb 7a 3e ba 35 a8 be 6d 63 c2 be
       0.060358766 0.24491608 -0.3285349 -0.3796648
0000e0 8c 4f c8 3e 59 3a 1a be c7 3c ef be 1a 44 0f 3e
       0.3912319 -0.1506132 -0.46726057 0.13990822
0000f0 1a 5e 6c 3f 40 af 86 bb 27 18 b8 3c 76 d1 b1 3e
       0.9233109 -0.004110247 0.022472454 0.3473012
000100 83 75 8f be 7a 7e 25 3f 2a b5 7d bd 3f 3a 1a 3f
       -0.28019342 0.6464611 -0.06194035 0.60245126
000110 a4 10 08 be 8c a6 61 3b 86 5f 5d 3e 00 3c 03 be
       -0.13287598 0.0034431545 0.2161847 -0.12815857
000120 c7 fa a7 be 92 34 44 3e d4 a8 93 3e ce 4a b7 be
       -0.32808515 0.19160679 0.28839743 -0.3579926
000130 a7 c6 c6 bd 98 7a 31 be 21 1f 33 3f b1 de d8 bd
       -0.09705859 -0.17331922 0.69969374 -0.1058935
000140 5b 96 c7 3e cb 83 89 be 09 45 56 bd 27 0c 8b 3e
       0.389819 -0.26858363 -0.05231193 0.2715771
000150 fb 8f 06 be 74 10 5b 3f 6b 3d 1c 3f 09 ea f4 bd
       -0.13140862 0.8557198 0.61031216 -0.11958701
000160 ad ea d7 3e 35 bd e8 be 89 39 f7 3e cd 6a 29 3e
       0.4217123 -0.45456854 0.48286083 0.16544648
000170 bc e8 b2 3d 9f ca 50 3e c2 17 39 3f 28 b5 6e be
       0.08735797 0.20389794 0.72301877 -0.23311293
000180 a5 72 66 bc eb 0a 16 3f 21 3a 43 3e 08 b0 cd bc
       -0.014065419 0.5861041 0.19065143 -0.025108352
000190 c3 09 b4 bb 10 60 2f 3f 2f 0d 36 3f 45 2f 5f 3d
       -0.0054943278 0.68505955 0.71113867 0.05448844
0001a0 37 bc a5 3e b1 58 6b be 85 30 b4 be 6a 95 ed 3d
       0.3237016 -0.22983052 -0.35193267 0.11600764
0001b0 4d d3 fe 3d d4 d4 e2 3e ad 9f 0d 3f 22 22 1a bf
       0.12442646 0.44303 0.5532177 -0.6020833
0001c0 0a 1a 44 bf f6 b4 49 bf 85 19 04 be 70 e6 70 3e
       -0.7660223 -0.7879175 -0.1290036 0.23525405
0001d0 1b 34 2c bf c5 45 d6 3e c0 4f 00 3e 60 1c 5c bf
       -0.67267007 0.41850105 0.12530422 -0.85980797
0001e0 70 88 02 3f 21 11 e5 bd 56 a7 fa 3e bf ba 2f 3f
       0.5098944 -0.11184908 0.48955792 0.68644327
0001f0 bf ec f3 bd a2 39 81 be 05 f8 1a bf 60 b5 9d 3c
       -0.1191039 -0.25239283 -0.605347 0.019251525
000200 b0 73 ba be 37 62 e4 3e 8f 1e 75 3c a7 d1 05 bf
       -0.36416388 0.44606182 0.014960899 -0.5227303
000210 03 e5 d5 be fe 31 36 bf db a8 4e bf 1c 0f 3d bd
       -0.41776285 -0.7117003 -0.80726403 -0.046156988
000220 c7 7a 12 be 09 6a 03 bf 95 da ab bd 36 41 a7 be
       -0.14304648 -0.5133367 -0.083913006 -0.3266694
000230 fa aa b1 3e 8f 7e 3e 3d f6 87 f6 3d f9 9b 81 3e
       0.34700757 0.046507414 0.12037651 0.2531431
000240 a3 90 7a 3f 84 ad ee 3e fb 03 c7 3c 65 6d 08 3f
       0.9787695 0.46616757 0.02429389 0.5329192
000250 df 77 13 3e c2 51 05 3e 0a d3 b7 be d4 f0 57 be
       0.14401196 0.1301947 -0.35903198 -0.21087962
000260 d1 f4 52 3f a6 e6 b2 be b2 c4 af be 62 fe c1 3e
       0.8240481 -0.34941596 -0.34329754 0.3788939
000270 24 54 1c 3f 69 fb 2c be d3 31 31 3f 7b c7 5d 3e
       0.6106589 -0.1689278 0.6921665 0.21658127
000280 14 b0 ba bd 2f f7 f1 3e 2b c5 4a bc c7 04 20 3e
       -0.091156155 0.472589 -0.01237611 0.15626822
000290 33 e8 97 be 34 1d 2c bf 72 72 24 bf 0e e9 30 bf
       -0.2966934 -0.6723206 -0.6423713 -0.69105613
0002a0 b0 d5 fa be 9f ef 0c 3f 40 e2 d7 bd 79 97 80 3e
       -0.48991156 0.5505313 -0.10541201 0.25115564
0002b0 0d ee a7 bd 68 bf 09 bf e8 35 dc bd 5e 47 8e 3e
       -0.081997015 -0.5380769 -0.10752469 0.27788824
0002c0 c6 d6 07 3e 24 19 d8 be 90 75 fa be 05 cd b5 3d
       0.13265523 -0.4220668 -0.48917818 0.08876995
0002d0 7f 95 4f be 3b 1e 0f 3f 8d 9e e5 bd 1e 2d 4a 3f
       -0.20271872 0.55905503 -0.11211882 0.78975093
0002e0 3c 9b 39 bd ea f2 4b 3f 4e 0e ab 3e 00 e6 16 3f
       -0.04531406 0.7966753 0.3340935 0.589447
0002f0 b7 67 1a 3f cf a3 5e 3e 57 ac dc 3d 16 7e 6e 3f
       0.60314506 0.21742176 0.10775059 0.9316114
000300 6a 3f 41 3e 85 d6 38 3e 52 84 38 3f f0 fb ed bb
       0.18871847 0.18050583 0.72076905 -0.0072626993
000310 bc d6 77 3f c8 20 fb 3e ce 94 09 3f db dc 65 3f
       0.96812034 0.49048448 0.5374268 0.89790124

sequential/dense_2/MatMul f4 [6, 10]
000000 31 cd 3e bf 33 b1 eb be 1e 2c 20 be 78 8a 1a 3d
       -0.7453185 -0.4603363 -0.1564183 0.03772971
000010 3c f0 c1 be 09 ad c0 be 87 b2 09 bf 48 70 b3 3c
       -0.37878597 -0.37632015 -0.53788036 0.021904126
000020 8b 3f aa be df b7 34 bf 0a a1 96 3f c9 76 d6 3d
       -0.33251604 -0.70593065 1.1767895 0.10471875
000030 d7 57 3d bf 85 ec 85 bf 7d 0e 78 3e 8b 1b 69 3f
       -0.7396216 -1.0462805 0.24224277 0.9105765
000040 e1 82 1d bd 2d bb 14 bf 9c ee aa 3e 22 b2 01 3e
       -0.038454894 -0.5809811 0.3338517 0.12665609
000050 86 a5 85 3e 24 d7 29 bf 3d 01 6f 3f 2a 5e 24 bf
       0.26102847 -0.66343904 0.93361264 -0.6420618
000060 0b d5 62 bf d6 e3 09 bf 31 09 98 3e 09 51 14 be
       -0.8860633 -0.53863275 0.29694512 -0.14484037
000070 31 76 51 3f 92 69 19 3f a5 1f 2a bf 18 fd 1a bf
       0.8182097 0.5992671 -0.66454536 -0.6054244
000080 2b c8 91 be f2 39 1d 3f ae d2 75 3f 4f cd f0 be
       -0.2847303 0.6141654 0.96024597 -0.47031638
000090 f0 a6 09 bf 41 7a 31 3d 23 f5 3c bf af 5a 3d 3f
       -0.5377035 0.04332948 -0.7381155 0.739665
0000a0 eb 36 59 be 88 41 88 bf bb 33 07 3f ff b0 34 3f
       -0.21212356 -1.0644999 0.5281331 0.70582575
0000b0 9f 2d 4f be ee fd 1e 3f 9c cd 85 3f 68 da 8b bf
       -0.20232247 0.62106216 1.0453372 -1.0926027
0000c0 5d 12 c1 3e 83 f9 19 bf 93 c9 1e 3f ec 4e 7b 3f
       0.37709323 -0.6014635 0.6202633 0.981673
0000d0 36 4b 10 bf eb 0f 5b 3e 3b c0 c7 be 6a 0c 53 3e
       -0.5636476 0.21392791 -0.39013848 0.20610204
0000e0 c6 0c 8c 3c 8a 91 26 3f c4 21 9b be 92 fe 34 3e
       0.017095935 0.65065825 -0.302992 0.17675236
