gesture_classifier/gesture_classifier/submodules/model/keypoint_classifier/keypoint_classifier.tflite (tflite, 6588 bytes, 6 tensors)

sequential/dense/BiasAdd/ReadVariableOp f4 [20]
0.5154588 -0.48513505 -0.75264823 0.3593607 -0.65153235 0.41862744 0.027144887 -0.6086505
-0.45775425 0.19078004 -0.4525856 0.1920647 0.37687844 -0.52796435 0.39040792 -0.00075354794
0.27162766 0.6406389 -0.25927886 -0.6678468
00000000: 1cf5 033f 9f63 f8be 8ead 40bf 20fe b73e
00000010: d3ca 26bf 5656 d63e f45e de3c 85d0 1bbf
00000020: c45e eabe d85b 433e 4db9 e7be 9cac 443e
00000030: 36f6 c03e ac28 07bf 8ce3 c73e bf89 45ba
00000040: c812 8b3e e900 243f 33c0 84be 02f8 2abf

sequential/dense_2/BiasAdd/ReadVariableOp f4 [5]
-0.24722415 -0.15617368 -0.32829016 0.33424428 0.5286564
00000000: 5428 7dbe feeb 1fbe a615 a8be 1122 ab3e
00000010: 0756 073f

sequential/dense_1/BiasAdd/ReadVariableOp f4 [10]
-0.3361588 0.061869342 0.11795067 -0.12367245 0.68297654 0.21809037 -0.444011 -0.22761044
0.44551423 0.4191675
00000000: 021d acbe b56a 7d3d 1f90 f13d fb47 fdbd
00000010: 8dd7 2e3f 1553 5f3e 6955 e3be b612 69be
00000020: 711a e43e 1f9d d63e

sequential/dense/MatMul f4 [20, 42]
0.24619997 0.04989943 0.023042208 0.057142995 -0.14550853 0.097329 -0.23607613 0.08952409
-0.2779447 0.08777227 -0.014495121 0.1409337 -0.100856625 0.09449899 0.081709854 0.025460497
0.040001545 0.00023376447 -0.014272052 0.16821878 -0.090134114 0.06817783 0.060618334 0.041619193
0.22012752 -0.7580006 0.1335569 0.19758163 -0.12694801 0.16495457 0.075044975 0.18199982
0.1169518 0.24547648 -0.17022055 0.25506923 -0.08620446 0.17490925 0.18914142 0.22634852
0.23448218 0.19225167 0.29588044 0.3028952 0.11341231 -0.19434977 0.19924589 -0.44700965
0.24647696 -0.023129227 0.20995922 0.013462656 0.25936207 -0.26427963 0.09234149 -0.15952568
0.073658355 0.038681313 -0.20549124 0.092695095 0.11327599 -0.3442361 0.43765467 0.10114654
-0.031545468 0.2440649 -0.14146213 0.18553336 -0.048750944 -0.3557217 0.027905867 -0.053149264
0.01737145 0.11817617 -0.2432866 0.3227755 -0.18681756 -0.24627344 -0.03520467 -0.20396961
-0.127939 0.014747221 -0.3250762 0.25914094 0.13788944 0.029904842 0.07885568 -0.44648358
0.19858491 -0.20534006 0.13503721 -0.3039861 -0.17234375 -0.32905936 0.09135602 -0.3052726
0.4911622 0.013850966 0.017700186 0.20875478 -0.06557995 0.15592602 -0.014358171 -0.11851854
0.3872318 -0.13627303 -0.006093111 0.11125584 -0.28153247 0.012242528 -0.27897906 -0.17001922
0.2580727 -0.0066418746 -0.1030688 0.13099664 -0.12179265 0.055066843 -0.37280628 -0.24177605
0.29593313 -0.07425835 0.15941921 0.13619763 -0.23756804 0.10196845 -0.2653554 -0.28601164
-0.17790955 0.24910367 -0.07899905 0.2502624 -0.032885775 0.27919453 -0.026284289 0.24699652
-0.018155461 0.18879296 -0.21382073 0.10147122 -0.082968354 0.023976106 0.05742127 -0.9568137
-0.066584565 0.16933167 -0.13875058 0.01951141 -0.13075341 -0.050142474 0.045135975 -0.18383884
-0.1765391 0.08988051 -0.0991873 0.089988284 -0.08120925 0.06962742 0.18129157 -0.02020546
0.16177097 0.09668297 -0.11975075 0.02229517 -0.0046748803 0.08475609 0.31246117 -0.04437197
0.2296766 -0.1766828 0.19674267 -0.3866548 0.17026074 -0.55065095 0.032700308 -0.43705744
-0.13467279 -0.50938416 0.3348688 -0.23883271 0.23212007 0.11916076 0.009587821 0.15483361
-0.07228667 0.121387154 0.1097364 -0.046082027 0.099647425 0.09232555 0.02149008 0.14513724
0.13102555 0.1309981 0.27830532 -0.22118787 0.43715677 -0.0065194564 0.36269417 0.13533732
-0.087392 -0.0087841535 -0.30316556 0.010680818 0.2531008 0.00751773 0.093456365 0.13808198
-0.15371192 -0.012713072 0.30013144 -0.15336917 -0.006057046 0.09449638 0.019082543 0.19808291
-0.0820849 0.19642478 -0.1847873 0.052496023 0.0487629 0.17700051 -0.10589677 0.067186706
-0.09500465 0.06634473 0.11271399 0.020667667 -0.12617557 0.20161396 -0.09355631 0.111750945
0.07327169 0.10760387 0.19089608 -0.9912257 -0.09229106 0.10318866 -0.10970112 0.20299628
-0.06671387 0.19597736 0.42877564 0.30695334 0.022499641 0.10686897 -0.10036904 0.19860458
0.2628387 0.1287647 0.18529959 0.19428392 0.1746996 0.24310017 -0.28446642 0.55680394
00000000: d81b 7c3e 5863 4c3d 03c3 bc3c c60e 6a3d
00000010: 3000 15be 6d54 c73d f1bd 71be 6858 b73d
00000020: c54e 8ebe f3c1 b33d f27c 6dbc ed50 103e
00000030: eb8d cebd b088 c13d 7f57 a73d 8892 d03c
00000040: a9d8 233d ac1e 7539 53d5 69bc 8b41 2c3e
00000050: 3c98 b8bd d1a0 8b3d ee4a 783d e378 2a3d
00000060: 1c69 613e 540c 42bf 24c3 083e d752 4a3e
00000070: a9fe 01be dae9 283e 2eb1 993d 295e 3a3e
00000080: 6d84 ef3d 305e 7b3e 4c4e 2ebe 6f98 823e
00000090: f78b b0bd 691b 333e 4aae 413e e8c7 673e
000000a0: 191c 703e 9fdd 443e a47d 973e 1415 9b3e
000000b0: b744 e83d a003 47be 1d07 4c3e 73de e4be
000000c0: 7564 7c3e 8179 bdbc 8dff 563e 7992 5c3c
000000d0: 1bcb 843e a94f 87be 891d bd3d b35a 23be
000000e0: 31da 963d 4c70 1e3d 4c6c 52be edd6 bd3d
000000f0: 3efd e73d b73f b0be 4614 e03e eb25 cf3d
00000100: d235 01bd 26ec 793e 73db 10be 75fc 3d3e
00000110: 12af 47bd 2821 b6be d89a e43c 0bb3 59bd
00000120: 924e 8e3c 5906 f23d 1f20 79be d542 a53e
00000130: 1a4d 3fbe 1b2f 7cbe c632 10bd 69dd 50be
00000140: 7102 03be 549e 713c 6370 a6be 1fae 843e
00000150: e432 0d3e 00fb f43c 167f a13d 7f99 e4be
00000160: d859 4b3e aa44 52be 3247 0a3e 11a4 9bbe
00000170: e17a 30be 787a a8be dd18 bb3d b14c 9cbe
00000180: 9d79 fb3e 29ef 623c fbff 903c d0c3 553e
00000190: c84e 86bd 12ab 1f3e 893e 6bbc d9b9 f2bd
000001a0: 3f43 c63e 288b 0bbe b8a8 c7bb 1ada e33d
000001b0: 0625 90be e294 483c 58d6 8ebe 8519 2ebe
000001c0: 1b22 843e 15a4 d9bb bc15 d3bd fc23 063e
000001d0: 6d6e f9bd c58d 613d 77e0 bebe 2494 77be
000001e0: 8c84 973e c314 98bd ca3e 233e 6477 0b3e
000001f0: 0945 73be d6d4 d03d aadc 87be 1e70 92be
00000200: ec2d 36be 0815 7f3e 41ca a1bd 6522 803e
00000210: 3cb3 06bd 96f2 8e3e 2652 d7bc a8ec 7c3e
00000220: c3ba 94bc f152 413e d2f3 5abe 25d0 cf3d
00000230: 50eb a9bd 8a69 c43c 9132 6b3d bef1 74bf
00000240: 7d5d 88bd 4865 2d3e a214 0ebe 64d6 9f3c
00000250: 39e4 05be 3262 4dbd 80e0 383d 4040 3cbe
00000260: aac6 34be 4613 b83d b622 cbbd c74b b83d
00000270: 0951 a6bd d298 8e3d 7fa4 393e ec85 a5bc
00000280: 4aa7 253e b901 c63d e23f f5bd 5ca4 b63c
00000290: bd2f 99bb 9a94 ad3d e9fa 9f3e 62bf 35bd
000002a0: 5830 6b3e 56ec 34be e976 493e 9ef7 c5be
000002b0: d558 2e3e 76f7 0cbf c2f0 053d fec5 dfbe
000002c0: aae7 09be 0067 02bf ec73 ab3e 9090 74be
000002d0: e2b0 6d3e 8e0a f43d 3c16 1d3c b48c 1e3e
000002e0: 090b 94bd d499 f83d 7abd e03d 82c0 3cbd
000002f0: f313 cc3d 2e15 bd3d f70b b03c db9e 143e
00000300: 902b 063e 5e24 063e 097e 8e3e 137f 62be
00000310: 03d3 df3e 2aa1 d5bb 0db3 b93e de95 0a3e
00000320: 94fa b2bd 69eb 0fbc 8438 9bbe 99fe 2e3c
00000330: 6e96 813e 4a57 f63b 0d66 bf3d 5d65 0d3e
00000340: a866 1dbe 7d4a 50bc d4aa 993e cf0c 1dbe
00000350: 2f7a c6bb 5187 c13d fe52 9c3c 3fd6 4a3e
00000360: 211c a8bd 9423 493e e238 3dbe 1206 573d
00000370: 9bbb 473d 9f3f 353e 68e0 d8bd 2f99 893d
00000380: cc91 c2bd bfdf 873d 98d6 e63d 3d4f a93c
00000390: 2b34 01be e473 4e3e 739a bfbd aedd e43d
000003a0: 780f 963d 6b5f dc3d 437a 433e f8c0 7dbf
000003b0: 1803 bdbd 9454 d33d fbaa e0bd 42de 4f3e
000003c0: 48a1 88bd 4aae 483e 7b88 db3e fd28 9d3e
000003d0: 2b51 b83c 1ede da3d 498e cdbd 005f 4b3e
000003e0: cb92 863e e5da 033e 2dbf 3d3e 5df2 463e
000003f0: 74e4 323e 40ef 783e 95a5 91be b48a 0e3f

sequential/dense_1/MatMul f4 [10, 20]
-0.6693216 0.2618647 -0.14098655 0.016164152 0.45959792 -0.19346195 0.66632366 1.1044297
0.8532127 0.056124102 0.4004018 0.51288533 -0.45865822 0.3574794 -0.46509442 -0.5485564
-0.23746331 -0.588255 0.22149013 0.01636938 0.70917344 0.023253469 0.12722726 -0.030754555
0.4022188 0.021426719 -0.17107558 0.1038882 -0.24027738 -0.1680623 0.053880256 -0.24800192
0.98814654 -0.3783949 -0.05933865 0.20695089 0.3596475 0.2770643 -0.59792876 -0.1003057
-0.49209324 0.24588956 -0.14874035 -0.0707827 -0.3552651 0.007920171 0.4728716 -0.7543871
0.21104482 0.13472544 0.41878882 0.10309936 -0.37902018 -0.14169993 -0.13010451 -0.23392533
-0.19613783 0.0152479345 0.4354385 -0.0055785035 -0.44162124 -0.07865281 0.14871961 -0.15269424
0.011801594 0.17841138 -0.28234306 -0.2538909 0.20919046 0.7799613 0.30442324 0.008842782
-0.24637881 -0.2753173 -0.14615089 0.009165561 -0.4713356 -0.40973663 0.63520944 -0.14275259
0.5113242 -0.15218882 -0.31949103 0.61600393 -0.15135717 0.6731638 -0.16244182 -0.052445155
0.17148796 0.29599947 -0.056511875 0.096305855 0.6437137 -0.094979905 0.027813883 -0.038590673
0.38742846 0.9315079 0.39278805 -0.14129795 0.85820425 -0.1999776 0.3050825 0.21826334
0.6943248 1.0377345 -0.2984808 0.3532516 -0.31141704 0.81071126 -0.43475717 1.0188509
0.29838362 0.63964474 0.77230173 0.68625635 -0.13006036 0.12523925 0.65846014 0.3363671
-0.48643124 0.29105687 0.5782118 -0.89002657 0.6305648 -0.5882734 -0.4740799 0.698781
0.51273125 0.20687522 0.46601436 0.12783921 0.031481184 0.06867875 0.6041498 0.68608856
0.24833274 -0.5309984 0.509974 0.44567272 0.1610137 -0.055288654 -0.10185382 -0.14979525
-0.32416934 0.019193279 0.14058985 0.3414699 -0.17695066 -0.44200704 -0.026561659 -0.11680853
-0.2945588 -0.035429765 -0.031856645 -0.111155294 -0.5512747 -0.049904432 0.68281543 -0.08933095
-0.5158707 0.90787154 0.482456 -0.0626076 0.011037408 -0.6093266 0.24960984 -0.2787579
0.5007376 -0.6517078 0.83960354 -0.59991825 -0.4058985 0.21240237 -0.074462205 -0.039189402
0.61407965 0.560146 0.46708038 0.5798127 -0.78976756 -0.018463584 -0.4399237 0.78380823
-0.7585273 -0.3896574 1.0035107 0.2238054 0.412021 0.6117617 0.2263353 0.15050492
-0.516649 0.3509461 -0.42053652 -0.74939287 0.03220425 0.39049476 0.26428574 0.1305036
00000000: a958 2bbf 2113 863e c75e 10be af6a 843c
00000010: 6b50 eb3e e41a 46be 3094 2a3f f45d 8d3f
00000020: 266c 5a3f 63e2 653d 7701 cd3e 744c 033f
00000030: 40d5 eabe 8a07 b73e db20 eebe 316e 0cbf
00000040: 9529 73be e197 16bf 4fce 623e 1419 863c
00000050: 648c 353f 0f7e be3c dd47 023e faf0 fbbc
00000060: 9fef cd3e 1687 af3c 702e 2fbe 56c3 d43d
00000070: 460b 76be 8618 2cbe 8bb1 5c3d 37f4 7dbe
00000080: 2cf7 7c3f fabc c1be 160d 73bd efea 533e
00000090: b823 b83e 5fdb 8d3e dc11 19bf 136d cdbd
000000a0: a5f3 fbbe 79ca 7b3e 644f 18be 85f6 90bd
000000b0: 4fe5 b5be 9bc3 013c 3a1c f23e 831f 41bf
000000c0: 221c 583e 77f5 093e 7d6b d63e c225 d33d
000000d0: ef0e c2be c919 11be 1e3a 05be 1f8a 6fbe
000000e0: 5bd8 48be 79d2 793c ccf1 de3e e1cb b6bb
000000f0: 2e1c e2be b914 a1bd f449 183e e15b 1cbe
00000100: 795b 413c 79b1 363e 458f 90be fdfd 81be
00000110: 0636 563e 8bab 473f 5ddd 9b3e 51e1 103c
00000120: ba4a 7cbe 64f6 8cbe 94a8 15be 262b 163c
00000130: e652 f1be 00c9 d1be 169d 223f bc2d 12be
00000140: 25e6 023f 63d7 1bbe 5494 a3be 6fb2 1d3f
00000150: 60fd 1abe 7654 2c3f 2657 26be bbd0 56bd
00000160: 8a9a 2f3e 3e8d 973e ff78 67bd 013c c53d
00000170: 6cca 243f d384 c2bd f1d9 e33c 4111 1ebd
00000180: 065d c63e 4d77 6e3f 841b c93e 69b0 10be
00000190: 46b3 5b3f eec6 4cbe c633 9c3e 6d80 5f3e
000001a0: 45bf 313f 7cd4 843f 7ad2 98be 65dd b43e
000001b0: 0e72 9fbe c68a 4f3f 7e98 debe b569 823f
000001c0: bdc5 983e c2bf 233f 91b5 453f 7fae 2f3f
000001d0: 8b2e 05be b83e 003e d890 283f 4f38 ac3e
000001e0: 840d f9be 6805 953e b005 143f c8d8 63bf
000001f0: b26c 213f 1699 16bf 9aba f2be 50e3 323f
00000200: 5b42 033f 19d7 533e 6f99 ee3e 48e8 023e
00000210: 6af2 003d 72a7 8c3d 90a9 1a3f 80a3 2f3f
00000220: f04a 7e3e 83ef 07bf a88d 023f 372f e43e
00000230: c6e0 243e 5b76 62bd bc98 d0bd ed63 19be
00000240: 86f9 a5be 393b 9d3c c9f6 0f3e 25d5 ae3e
00000250: 8e32 35be bf4e e2be d697 d9bc 5039 efbd
00000260: 69d0 96be cd1e 11bd 1d7c 02bd 63a5 e3bd
00000270: 5720 0dbf 9768 4cbd fecc 2e3f 25f3 b6bd
00000280: 1a10 04bf 456a 683f 7904 f73e 6a38 80bd
00000290: 3fd6 343c d4fc 1bbf b999 7f3e 5bb9 8ebe
000002a0: 5730 003f 53d6 26bf 42f0 563f 3e94 19bf
000002b0: eed1 cfbe 0280 593e a47f 98bd 1185 20bd
000002c0: 5334 1d3f ba65 0f3f 2925 ef3e 9b6e 143f
000002d0: 352e 4abf f140 97bc ae3d e1be a8a7 483f
000002e0: d82e 42bf 2d81 c7be 0a73 803f 3e2d 653e
000002f0: 6bf4 d23e 6a9c 1c3f 71c4 673e f61d 1a3e
00000300: 1c43 04bf 35af b33e 9050 d7be 36d8 3fbf
00000310: 9be8 033d eeee c73e 7650 873e bca2 053e

sequential/dense_2/MatMul f4 [5, 10]
-0.13429102 -0.5693907 -0.25010854 0.30891693 -0.23414072 -0.63241524 -0.08778225 -0.02733688
-0.7847415 -0.29907587 0.50344276 -0.20068546 -0.2608264 0.28777486 -0.6293745 0.36271816
0.6673058 -0.3676057 0.72847265 -0.4385031 0.77328384 -0.65866476 0.5162214 0.5679606
0.054240264 0.27707905 -0.40602487 0.70373327 -0.57089853 0.753151 -0.55966216 0.41622356
-0.6586348 0.0021769397 1.1349097 0.9672253 -0.43750253 -0.18258409 -0.45367154 -0.30463025
-0.2611024 -1.0260222 0.2549579 -0.5249863 0.5429278 -0.93038195 -1.103778 -0.4468543
0.8885117 0.8262157
00000000: 9683 09be 97c3 11bf 3a0e 80be 5c2a 9e3e
00000010: 96c2 6fbe f7e5 21bf 2ec7 b3bd 98f1 dfbc
00000020: d2e4 48bf 7920 99be a0e1 003f 7d80 4dbe
00000030: 0a8b 85be 3a57 933e b01e 21bf 32b6 b93e
00000040: 8ed4 2a3f d036 bcbe 2f7d 3a3f 7a83 e0be
00000050: eef5 453f 419e 28bf 1627 043f de65 113f
00000060: 0a2b 5e3d 4edd 8d3e 7ee2 cfbe dd27 343f
00000070: 6826 12bf 81ce 403f 0546 0fbf 411b d53e
00000080: 4a9c 28bf fdaa 0e3b b944 913f 149c 773f
00000090: 5500 e0be 53f7 3abe a347 e8be 7ff8 9bbe
000000a0: 37af 85be b254 83bf d889 823e 8165 06bf
000000b0: 51fd 0a3f 832d 6ebf 9948 8dbf 16ca e4be
000000c0: 8175 633f df82 533f
